…
model.summary()

model.compile(loss = 'categorical_crossentropy', optimizer='rmsprop', metrics=['accuracy'])

history = model.fit(train_generator, epochs=25, steps_per_epoch=20, validation_data = validation_generator, verbose = 1, validation_steps=3)

model.save("rps.h5")
Found 2520 images belonging to 3 classes.
Found 372 images belonging to 3 classes.
Model: "sequential"
_________________________________________________________________
 Layer (type)                Output Shape              Param #   
=================================================================
 conv2d (Conv2D)             (None, 148, 148, 64)      1792      
                                                                 
 max_pooling2d (MaxPooling2D  (None, 74, 74, 64)       0         
 )                                                               
                                                                 
 conv2d_1 (Conv2D)           (None, 72, 72, 64)        36928     
                                                                 
 max_pooling2d_1 (MaxPooling  (None, 36, 36, 64)       0         
 2D)                                                             
                                                                 
 conv2d_2 (Conv2D)           (None, 34, 34, 128)       73856     
                                                                 
 max_pooling2d_2 (MaxPooling  (None, 17, 17, 128)      0         
 2D)                                                             
                                                                 
 conv2d_3 (Conv2D)           (None, 15, 15, 128)       147584    
                                                                 
 max_pooling2d_3 (MaxPooling  (None, 7, 7, 128)        0         
 2D)                                                             
                                                                 
 flatten (Flatten)           (None, 6272)              0         
                                                                 
 dropout (Dropout)           (None, 6272)              0         
                                                                 
 dense (Dense)               (None, 512)               3211776   
                                                                 
 dense_1 (Dense)             (None, 3)                 1539      
                                                                 
=================================================================
Total params: 3,473,475
Trainable params: 3,473,475
Non-trainable params: 0
_________________________________________________________________
Epoch 1/25
20/20 [==============================] - 88s 4s/step - loss: 1.5243 - accuracy: 0.3603 - val_loss: 1.0566 - val_accuracy: 0.6183
…
